…
                  'ipe_scale': 1.25,
                  'lr': 0.000625,
                  'start_lr': 0.0002,
                  'warmup': 40,
                  'weight_decay': 0.04},
 'tasks_per_node': 8}
[INFO    ][2025-04-24 14:02:43][main                     ] Running pre-training of app: vjepa
[INFO    ][2025-04-24 14:02:53][main                     ] which_dtype='bfloat16'
[INFO    ][2025-04-24 14:02:53][main                     ] Initialized (rank/world-size) 1/2
[INFO    ][2025-04-24 14:03:01][init_video_model         ] MultiMaskWrapper(
  (backbone): VisionTransformer(
    (patch_embed): PatchEmbed3D(
      (proj): Conv3d(3, 1024, kernel_size=(2, 16, 16), stride=(2, 16, 16))
    )
    (blocks): ModuleList(
      (0-23): 24 x Block(
        (norm1): LayerNorm((1024,), eps=1e-06, elementwise_affine=True)
        (attn): Attention(
          (qkv): Linear(in_features=1024, out_features=3072, bias=True)
          (attn_drop): Dropout(p=0.0, inplace=False)
          (proj): Linear(in_features=1024, out_features=1024, bias=True)
          (proj_drop): Dropout(p=0.0, inplace=False)
        )
        (norm2): LayerNorm((1024,), eps=1e-06, elementwise_affine=True)
        (mlp): MLP(
          (fc1): Linear(in_features=1024, out_features=4096, bias=True)
          (act): GELU(approximate='none')
          (fc2): Linear(in_features=4096, out_features=1024, bias=True)
          (drop): Dropout(p=0.0, inplace=False)
        )
      )
    )
    (norm): LayerNorm((1024,), eps=1e-06, elementwise_affine=True)
  )
)
[INFO    ][2025-04-24 14:03:01][init_video_model         ] PredictorMultiMaskWrapper(
  (backbone): VisionTransformerPredictor(
    (predictor_embed): Linear(in_features=1024, out_features=384, bias=True)
    (mask_tokens): ParameterList(
        (0): Parameter containing: [torch.float32 of size 1x1x384 (cuda:0)]
        (1): Parameter containing: [torch.float32 of size 1x1x384 (cuda:0)]
    )
    (predictor_blocks): ModuleList(
      (0-11): 12 x Block(
        (norm1): LayerNorm((384,), eps=1e-06, elementwise_affine=True)
        (attn): Attention(
          (qkv): Linear(in_features=384, out_features=1152, bias=True)
          (attn_drop): Dropout(p=0.0, inplace=False)
          (proj): Linear(in_features=384, out_features=384, bias=True)
          (proj_drop): Dropout(p=0.0, inplace=False)
        )
        (norm2): LayerNorm((384,), eps=1e-06, elementwise_affine=True)
        (mlp): MLP(
          (fc1): Linear(in_features=384, out_features=1536, bias=True)
          (act): GELU(approximate='none')
          (fc2): Linear(in_features=1536, out_features=384, bias=True)
          (drop): Dropout(p=0.0, inplace=False)
        )
      )
    )
    (predictor_norm): LayerNorm((384,), eps=1e-06, elementwise_affine=True)
    (predictor_proj): Linear(in_features=384, out_features=1024, bias=True)
  )
)
[INFO    ][2025-04-24 14:03:01][init_video_model         ] Encoder number of parameters: 303885312
[INFO    ][2025-04-24 14:03:01][init_video_model         ] Predictor number of parameters: 22082944
[INFO    ][2025-04-24 14:03:01][main                     ] Initializing basic multi-block mask
[INFO    ][2025-04-24 14:03:04][make_videodataset        ] VideoDataset dataset created
…
